…
INFO:root:Namespace(is_training=True, device=0, num_workers=0, data='custom', root_path='data', data_path='all_countries.csv', features='M', target='Price (EUR/MWhe)', freq='h', seq_len=24, label_len=24, pred_len=24, embed='timeF', heads=4, d_model=25, N=5, block_nums=1, bottleneck=1, map_bottleneck=10, train_epochs=1, batch_size=8, patience=3, learning_rate=0.0005, tau=0.07, loss_weight_prediction=1.0, loss_weight_infonce=1.0, loss_weight_smooth=1.0, check_point='checkpoint')
INFO:root:Basisformer(
  (coefnet): Coefnet(
    (layers): ModuleList(
      (0): BCAB(
        (cross_attention_basis): channel_AutoCorrelationLayer(
          (query_projection): Linear(in_features=25, out_features=24, bias=True)
          (key_projection): Linear(in_features=25, out_features=24, bias=True)
          (value_projection): Linear(in_features=25, out_features=24, bias=True)
          (out_projection): Linear(in_features=24, out_features=25, bias=True)
          (attend): Softmax(dim=-1)
          (dropout): Dropout(p=0.1, inplace=False)
        )
        (conv1_basis): Linear(in_features=25, out_features=100, bias=True)
        (conv2_basis): Linear(in_features=100, out_features=25, bias=True)
        (dropout_basis): Dropout(p=0.1, inplace=False)
        (cross_attention_ts): channel_AutoCorrelationLayer(
          (query_projection): Linear(in_features=25, out_features=24, bias=True)
          (key_projection): Linear(in_features=25, out_features=24, bias=True)
          (value_projection): Linear(in_features=25, out_features=24, bias=True)
          (out_projection): Linear(in_features=24, out_features=25, bias=True)
          (attend): Softmax(dim=-1)
          (dropout): Dropout(p=0.1, inplace=False)
        )
        (conv1_ts): Linear(in_features=25, out_features=100, bias=True)
        (conv2_ts): Linear(in_features=100, out_features=25, bias=True)
        (dropout_ts): Dropout(p=0.1, inplace=False)
        (layer_norm11): LayerNorm((25,), eps=1e-05, elementwise_affine=True)
        (layer_norm12): LayerNorm((25,), eps=1e-05, elementwise_affine=True)
        (layer_norm21): LayerNorm((25,), eps=1e-05, elementwise_affine=True)
        (layer_norm22): LayerNorm((25,), eps=1e-05, elementwise_affine=True)
      )
    )
    (last_layer): last_layer(
      (query_projection): Linear(in_features=25, out_features=24, bias=True)
      (key_projection): Linear(in_features=25, out_features=24, bias=True)
    )
  )
  (MLP_x): MLP_bottle(
    (linear1): Sequential(
      (0): Linear(in_features=24, out_features=24, bias=True)
      (1): ReLU()
      (2): Linear(in_features=24, out_features=24, bias=True)
    )
    (linear2): Sequential(
      (0): Linear(in_features=24, out_features=24, bias=True)
      (1): ReLU()
      (2): Linear(in_features=24, out_features=24, bias=True)
    )
    (skip): Linear(in_features=24, out_features=24, bias=True)
    (act): ReLU()
  )
  (MLP_y): MLP_bottle(
    (linear1): Sequential(
      (0): Linear(in_features=24, out_features=24, bias=True)
      (1): ReLU()
      (2): Linear(in_features=24, out_features=24, bias=True)
    )
    (linear2): Sequential(
      (0): Linear(in_features=24, out_features=24, bias=True)
      (1): ReLU()
      (2): Linear(in_features=24, out_features=24, bias=True)
    )
    (skip): Linear(in_features=24, out_features=24, bias=True)
    (act): ReLU()
  )
  (MLP_sx): MLP_bottle(
    (linear1): Sequential(
      (0): Linear(in_features=24, out_features=24, bias=True)
      (1): ReLU()
      (2): Linear(in_features=24, out_features=24, bias=True)
    )
    (linear2): Sequential(
      (0): Linear(in_features=24, out_features=24, bias=True)
      (1): ReLU()
      (2): Linear(in_features=24, out_features=24, bias=True)
    )
    (skip): Linear(in_features=24, out_features=24, bias=True)
    (act): ReLU()
  )
  (MLP_sy): MLP_bottle(
    (linear1): Sequential(
      (0): Linear(in_features=24, out_features=24, bias=True)
      (1): ReLU()
      (2): Linear(in_features=24, out_features=24, bias=True)
    )
    (linear2): Sequential(
      (0): Linear(in_features=24, out_features=24, bias=True)
      (1): ReLU()
      (2): Linear(in_features=24, out_features=24, bias=True)
    )
    (skip): Linear(in_features=24, out_features=24, bias=True)
    (act): ReLU()
  )
  (project1): Linear(in_features=24, out_features=25, bias=True)
  (project2): Linear(in_features=24, out_features=25, bias=True)
  (project3): Linear(in_features=24, out_features=25, bias=True)
  (project4): Linear(in_features=24, out_features=25, bias=True)
  (criterion1): MSELoss()
  (criterion2): L1Loss()
  (map_MLP): MLP_bottle(
    (linear1): Sequential(
      (0): Linear(in_features=1, out_features=10, bias=True)
      (1): ReLU()
      (2): Linear(in_features=10, out_features=10, bias=True)
    )
    (linear2): Sequential(
      (0): Linear(in_features=10, out_features=10, bias=True)
      (1): ReLU()
      (2): Linear(in_features=10, out_features=240, bias=True)
    )
    (skip): Linear(in_features=1, out_features=10, bias=True)
    (act): ReLU()
  )
)
INFO:root:[Info] Number of parameters: 35444
INFO:root:	iters: 39028, epoch: 1 | loss: 0.0183919
INFO:root:	iters: 78056, epoch: 1 | loss: 0.0014674
INFO:root:	iters: 117084, epoch: 1 | loss: 0.0012645
